.dart_tool/chrome-device/Default/optimization_guide_prediction_model_downloads/3f11d1a0-b105-4092-8283-f8338550469f/model.tflite (tflite, 409956 bytes, 166 tensors)

context_transformer_0/bottleneck_input/norm/add f4 [32]
-0.08378602 -0.046141017 -0.03594991 -0.016672244 0.07925308 0.11031158 0.029094845 0.166443
0.056507036 0.017252387 -0.034768693 0.12526083 -0.082988575 0.010796392 -0.05948139 0.11998385
-0.032171343 -0.22409242 0.05505584 0.023335103 0.067484185 0.07655567 0.0073316228 -0.061114125
-0.01942474 0.011183581 0.0304773 -0.15041156 0.100278646 0.0251397 -0.08580001 0.09379545
00000000: 0198 abbd 5dfe 3cbd 3640 13bd 3b94 88bc
00000010: 704f a23d 0aeb e13d 5058 ee3c 0970 2a3e
00000020: ec73 673d e154 8d3c 9e69 0ebd 6044 003e
00000030: eaf5 a9bd 5ae3 303c c2a2 73bd 18ba f53d
00000040: 19c6 03bd 7c78 65be 3c82 613d 4229 bf3c
00000050: 2635 8a3d 38c9 9c3d 1c3e f03b ce52 7abd
00000060: a220 9fbc 573b 373c 88ab f93c 7d05 1abe
00000070: e45e cd3d c6f1 cd3c eab7 afbd d417 c03d

context_transformer_1/bottleneck_input/norm/add f4 [32]
-0.01127333 0.12150871 -0.14618236 0.11389257 0.039141633 0.012542417 0.014490356 0.024010506
0.043084525 -0.027248148 -0.21211728 -0.123032756 -0.052679755 0.25804994 0.14400354 0.05643344
0.041401077 -0.09508834 -0.14151093 0.0642369 0.1822075 0.04185222 0.0053526545 -0.04092104
0.031093558 0.07327259 0.071682796 0.050618075 0.091666356 -0.049166374 0.0043026395 0.060110718
00000000: c6b3 38bc 8fd9 f83d d4b0 15be 8240 e93d
00000010: fa52 203d b67e 4d3c f568 6d3c aeb1 c43c
00000020: 6679 303d 8237 dfbc 4635 59be 99f8 fbbd
00000030: bac6 57bd 1f1f 843e aa75 133e c026 673d
00000040: 2d94 293d adbd c2bd 3ee8 10be a38e 833d
00000050: 9a94 3a3e 3c6d 2b3d 5265 af3b d29c 27bd
00000060: ebb7 fe3c f10f 963d 6ece 923d e654 4f3d
00000070: 92bb bb3d ae62 49bd 28fd 8c3b a836 763d

mention_transformer_0/bottleneck_input/norm/add f4 [32]
-0.044061907 -0.035380535 -0.03204687 -0.1689519 -0.20357963 0.08902578 0.010384123 -0.14230764
-0.098302014 -0.30393425 0.06713267 -0.1682321 -0.21666002 -0.06320485 0.1250126 0.1329152
0.08765672 -0.0024221353 0.04755792 -0.11822685 -0.07852253 -0.10202709 -0.13296852 0.05255074
0.042231034 -0.08443104 0.2417869 -0.033855557 -0.041108236 -0.06306869 -0.010301848 0.13909145
00000000: 427a 34bd 2eeb 10bd 9443 03bd ba01 2dbe
00000010: 2e77 50be 2653 b63d 2b22 2a3c 18b9 11be
00000020: 9152 c9bd 459d 9bbe da7c 893d 0945 2cbe
00000030: 20dc 5dbe 8b71 81bd 4e03 003e ec1a 083e
00000040: 5e85 b33d b0bc 1ebb 18cc 423d eb20 f2bd
00000050: 6cd0 a0bd 94f3 d0bd e628 08be 723f 573d
00000060: 73fa 2c3d 2eea acbd fc96 773e 20ac 0abd
00000070: 1c61 28bd 282a 81bd 15c9 28bc fd6d 0e3e

mention_transformer_1/bottleneck_input/norm/add f4 [32]
-0.42428178 -0.23906547 -0.008159215 0.3255102 -0.03379079 -0.2801163 -0.2508777 0.26562503
0.3776416 0.084235735 -0.0876279 0.15840577 -0.3350498 -0.14806499 -0.14192559 -0.066607915
0.29809058 -0.49423128 -0.2242274 0.10934438 -0.3396637 0.3708024 0.34079018 0.1383431
0.09474902 -0.062281795 0.151992 -0.043871254 -0.26653817 0.23801969 0.13127904 -0.05881039
00000000: 763b d9be 94cd 74be 3aae 05bc 46a9 a63e
00000010: 3668 0abd 676b 8fbe 0b73 80be 0100 883e
00000020: 3d5a c13e c983 ac3d 4276 b3bd 1f35 223e
00000030: a68b abbe 599e 17be f154 11be bb69 88bd
00000040: 549f 983e e20b fdbe de9b 65be f2ef df3d
00000050: 67e8 adbe d0d9 bd3e 0d7c ae3e d0a9 0d3e
00000060: c60b c23d 321b 7fbd caa3 1b3e 58b2 33bd
00000070: b177 88be 6fbb 733e 036e 063e 2ae3 70bd

context_transformer_0/attention/value/add;context_transformer_0/attention/value/einsum/Einsum;context_transformer_0/attention/value/add/ReadVariableOp/resource f4 [32]
-0.048277006 0.0046791662 0.05950327 -0.038112696 -0.026539456 -0.1471912 -0.03216256 0.007079514
0.053556547 -0.03035725 0.042061534 -0.036130786 0.014352493 -0.10693342 -0.010946639 0.012456202
-0.068286054 0.055471998 0.09449147 -0.07297051 0.088606976 -0.12645894 -0.074077144 0.062829286
0.10788427 0.043498505 0.0010212747 -0.10672905 -0.19688068 -0.10355771 -0.057479523 0.018396743
00000000: 1cbe 45bd b153 993b b3b9 733d 0f1c 1cbd
00000010: 4669 d9bc 4ab9 16be e3bc 03bd 45fb e73b
00000020: 1c5e 5b3d c4af f8bc b748 2c3d e0fd 13bd
00000030: b826 6b3c e9ff dabd 8859 33bc 1915 4c3c
00000040: 8fd9 8bbd 9b36 633d be84 c13d 9071 95bd
00000050: 9377 b53d 747e 01be c2b5 97bd a4ac 803d
00000060: 6ef2 dc3d 7d2b 323d 4bdc 853a c394 dabd
00000070: 179b 49be 1116 d4bd a66f 6bbd c4b4 963c

context_transformer_0/bottleneck_input/norm/mul f4 [32, 32]
0.26826334 -0.14406447 0.5439712 0.50179976 0.6499712 -0.45354512 0.08519142 0.017463258
0.19826843 -0.19139431 0.008352591 0.25524005 0.12135217 0.8494468 -0.157338 0.46403575
0.1368115 -0.22646537 0.32135954 0.057215974 0.14132361 0.2994499 -0.09632614 0.11178933
0.09536098 0.18979794 0.59679645 -0.0015888416 -0.24199244 0.10605107 -0.10148361 0.039151765
-0.011276347 0.49225935 0.11755568 -0.10149955 0.22060579 -0.29939908 0.2568052 0.17338891
0.087232925 0.00429281 0.043850444 -0.15692951 0.07879721 0.15942326 -0.4289046 0.3379766
0.20885348 -0.29280624 0.22781825 -0.034327675 -0.042221885 0.3243166 0.24157202 0.0073025655
-0.12502638 -0.65422237 0.43647334 0.111835495 0.25307667 -0.34235528 0.48874876 -0.52200663
-0.44241986 0.018622963 0.26799652 -0.036153357 0.2976526 0.15869841 0.29465944 -0.7476369
-0.084015675 -0.08198671 -0.51820517 0.5569559 0.0913959 -0.97688764 -0.3092877 -0.0869534
0.115708984 0.062648155 -0.6898923 0.3510774 0.5331234 -0.23710299 0.3580745 -0.6653073
0.1869398 0.4338178 -0.10205257 0.5028408 0.25561374 -0.042051096 -0.92993546 -0.010619159
0.09374539 0.038760573 -0.38589615 0.31115255 0.2439126 -0.08638787 0.11031817 0.40487647
-0.41158703 0.37213442 0.06317302 -0.32828924 -0.13958158 0.12732415 0.034486074 0.18768425
-0.17280623 -0.6660367 0.04527194 -0.34051406 -0.12141515 -0.083215475 -0.19927013 0.4919109
0.11644678 -0.41824508 0.13502404 -0.26959953 -0.3071477 0.6651602 -0.07528198 -0.15133034
0.020889113 -0.23570782 0.05039577 0.069135785 0.3805126 0.06932186 -0.13538115 -0.19389957
0.21017367 0.1201544 0.05524893 -0.07410539 -0.09116758 0.07480738 -0.0375393 0.17277277
-0.26653302 0.19065046 -0.077107035 0.15201893 0.27836043 0.25231332 -0.023875194 0.3169536
-0.053175483 0.20695432 0.2466993 0.19446166 -0.06731115 -0.09776495 0.050368138 -0.23142117
-0.15978651 0.087070346 0.052548002 -0.30173665 -1.130434 -0.09101338 0.006098809 -0.4497481
0.18002875 0.23868771 0.6998294 0.25901574 -0.1895851 0.34925887 0.17789827 0.4578608
-0.6093919 -0.5176254 0.009951535 0.5071854 -0.15156794 0.38633227 -0.09758558 -0.8127014
-0.16113557 -0.24219614 0.5877513 0.28619328 -0.020617109 -0.5081729 0.5129351 -0.31956345
-0.14716902 0.41718018 -0.58814424 -0.06981225 0.24181642 0.03185563 0.04556703 -0.29448804
-0.054944955 -0.54281795 -0.35483882 0.031038828 0.20941174 -0.39500022 0.010527689 -0.15089025
0.042778768 0.31288385 0.2796913 -0.37393734 0.027458021 0.085650206 -0.09915652 0.05935201
0.59195024 0.3366408 0.35307392 -0.35235095 0.34747928 0.24171995 0.21748058 0.46777782
0.12656611 -0.16254184 0.6087994 -0.11431839 0.00046022015 0.42643517 0.033988003 -0.4473816
0.22299387 0.12639235 -0.22725068 0.52262276 0.506743 -0.015961831 0.28439024 -0.124371506
-0.20305918 0.19506247 0.23448493 0.027336352 -0.040339798 0.34604892 0.2597533 0.39514378
0.08149998 -0.07103946 -0.175292 -0.05109785 -0.05171051 -0.089287944 0.12866192 0.076895006
00000000: d059 893e a385 13be b241 0b3f f375 003f
00000010: 8364 263f 1137 e8be d778 ae3d 1b0f 8f3c
00000020: e106 4b3e dffc 43be 4ed9 083c d3ae 823e
00000030: 7d87 f83d 5875 593f 361d 21be 1896 ed3e
00000040: 5018 0c3e 8ae6 67be 3d89 a43e 4c5b 6a3d
00000050: 23b7 103e 7f51 993e a446 c5bd cef1 e43d
00000060: 9e4c c33d 645a 423e a7c7 183f ad40 d0ba
00000070: decc 77be 4e31 d93d a4d6 cfbd 9a5d 203d
00000080: 6dc0 38bc 6b09 fc3e 08c1 f03d ffde cfbd
00000090: 7ce6 613e d64a 99be f97b 833e dd8c 313e
000000a0: 2da7 b23d b3aa 8c3b 869c 333d 21b2 20be
000000b0: 6e60 a13d da3f 233e 6299 dbbe 450b ad3e
000000c0: b0dd 553e b3ea 95be 3049 693e 2d9b 0cbd
000000d0: dbf0 2cbd d30c a63e a85e 773e 5c4a ef3b
000000e0: ea06 00be 1e7b 27bf 6f79 df3e 020a e53d
000000f0: 4493 813e 3149 afbe 473d fa3e 3aa2 05bf
00000100: db84 e2be 2f8f 983c d736 893e 8b15 14bd
00000110: ec65 983e d681 223e 9add 963e 2265 3fbf
00000120: 6910 acbd a6e8 a7bd 18a9 04bf a994 0e3f
00000130: c62d bb3d 4f15 7abf f55a 9ebe a014 b2bd
00000140: d5f8 ec3d ad4d 803d c89c 30bf 6bc0 b33e
00000150: c67a 083f 20cb 72be 8a55 b73e 9451 2abf
00000160: 266d 3f3e 5e1d de3e f000 d1bd 2dba 003f
00000170: cedf 823e c53d 2cbd 4010 6ebf fbfb 2dbc
00000180: 95fd bf3d 68c3 1e3d 2e94 c5be 634f 9f3e
00000190: 3ac4 793e 20ec b0bd 7eee e13d f84b cf3e
000001a0: 89bb d2be 6788 be3e db60 813d 8715 a8be
000001b0: 79ee 0ebe 4361 023e 4541 0d3d 4d30 403e
000001c0: 1ef4 30be 6281 2abf 126f 393d dc57 aebe
000001d0: 82a8 f8bd e06c aabd 780d 4cbe bfdb fb3e
000001e0: a67b ee3d 3824 d6be be43 0a3e f308 8abe
000001f0: 7742 9dbe f047 2a3f 702d 9abd 57f6 1abe
00000200: a51f ab3c 645d 71be cc6b 4e3d 1097 8d3d
00000210: 8cd2 c23e 9ff8 8d3d 5ba1 0abe 9c8d 46be
00000220: c437 573e 8313 f63d b44c 623d 91c4 97bd
00000230: 11b6 babd 9d34 993d cfc2 19bd 58eb 303e
00000240: 0477 88be e039 433e 4bea 9dbd daaa 1b3e
00000250: 4285 8e3e 362f 813e e995 c3bc be47 a23e
00000260: 89ce 59bd d5eb 533e be9e 7c3e f520 473e
00000270: 6eda 89bd fd38 c8bd d24e 4e3d acf9 6cbe
00000280: 139f 23be f051 b23d 933c 573d 3a7d 9abe
00000290: 10b2 90bf 3965 babd 85d8 c73b 6245 e6be
000002a0: 7559 383e 8d6a 743e 0528 333f b69d 843e
000002b0: 9922 42be 0fd2 b23e f72a 363e bb6c ea3e
000002c0: 1c01 1cbf 1983 04bf c30b 233c e7d6 013f
000002d0: a034 1bbe 58cd c53e f3da c7bd 330d 50bf
000002e0: b900 25be 4402 78be df76 163f ed87 923e
000002f0: 36e5 a8bc 9f17 02bf b74f 033f d29d a3be
00000300: 7ab3 16be a498 d53e 9f90 16bf baf9 8ebd
00000310: b99e 773e 0d7b 023d 7ea4 3a3d 23c7 96be
00000320: f60d 61bd 1ef6 0abf 6fad b5be 2445 fe3c
00000330: 0870 563e 783d cabe 547c 2c3c f982 1abe
00000340: ca38 2f3d 5032 a03e b333 8f3e b774 bfbe
00000350: a5ef e03c 6069 af3d 9312 cbbd 181b 733d
00000360: 0d8a 173f 2f5c ac3e 1bc6 b43e 5867 b4be
00000370: cee8 b13e 6f85 773e 3bb3 5e3e 9380 ef3e
00000380: 8c9a 013e 5e71 26be 47da 1b3f c31f eabd
00000390: b449 f139 b655 da3e 0137 0b3d 330f e5be
000003a0: 8158 643e ff6c 013e 67b4 68be 9bca 053f
000003b0: e9b9 013f 63c2 82bc 999b 913e 7db6 febd
000003c0: bfee 4fbe 75be 473e d11c 703e 7cf0 df3c
000003d0: 583b 25bd 532d b13e 62fe 843e 4950 ca3e
000003e0: 76e9 a63d 237d 91bd bf7f 33be fb4b 51bd
000003f0: 66ce 53bd 99dc b6bd f3bf 033e 217b 9d3d

context_transformer_0/kq_shared_bottleneck/norm/mul;context_transformer_0/kq_shared_bottleneck/norm/add;context_transformer_0/attention/key/einsum/Einsum;context_transformer_0/attention/key/add;context_transformer_0/attention/value/einsum/Einsum;context_transformer_0/attention/key/add/ReadVariableOp/resource f4 [32]
-0.003019153 -0.016660534 -0.14462492 0.059657447 -0.26731557 -0.1283829 -0.2191766 -0.103259094
0.048335303 -0.31103265 -0.05733121 -0.01983005 0.09833874 -0.08155048 0.010007872 0.09251611
0.09485129 0.05106887 -0.13826099 -0.18976173 0.05271954 0.15221128 -0.014244113 0.0033935946
0.25049707 0.21338671 -0.079720095 0.0370703 0.3076502 -0.38376847 -0.059102833 -0.1247385
00000000: fbdc 45bb ac7b 88bc 8e18 14be 5e5b 743d
00000010: 96dd 88be cf76 03be d56f 60be 8179 d3bd
00000020: 3dfb 453d ac3f 9fbe 21d4 6abd a172 a2bc
00000030: d265 c93d f003 a7bd 0ff8 233c 1679 bd3d
00000040: 6541 c23d 972d 513d 4a94 0dbe e650 42be
00000050: 72f0 573d 46dd 1b3e 2460 69bc 1267 5e3b
00000060: 2741 803e 0c82 5a3e 4a44 a3bd 07d7 173d
00000070: 5484 9d3e 4d7d c4be d015 72bd e676 ffbd

context_transformer_0/kq_shared_bottleneck/norm/mul;context_transformer_0/kq_shared_bottleneck/norm/add;context_transformer_0/attention/key/einsum/Einsum;context_transformer_0/attention/key/add;context_transformer_0/attention/value/einsum/Einsum;context_transformer_0/attention/key/add/ReadVariableOp/resource1 f4 [32, 32]
0.04288382 -0.007271512 0.076217555 -0.029808603 -0.019906463 0.15161458 0.033064432 0.3889162
-0.25208536 -0.036202975 0.31998894 0.063414216 -0.45676205 0.3109355 0.32557234 0.1874952
0.0514086 0.19414404 0.340611 0.04130326 0.11913415 0.012897337 -0.15551184 0.15139116
0.09152823 0.106748335 0.35058227 0.22336142 0.4283291 0.11905127 -0.2988927 -0.027861908
-0.19048364 0.05739812 0.06790279 -0.012028115 0.09056466 -0.103340946 -0.046334714 -0.25880337
0.27650264 -0.060348786 -0.020693146 -0.06542655 0.24685724 -0.18390873 -0.02283719 -0.018376805
-0.10304172 -0.065362796 -0.21140504 -0.2804775 -0.15426208 0.038465664 0.05729368 -0.19707747
0.107691884 -0.20269714 -0.11784854 -0.018708266 -0.3883605 -0.28033888 0.28356028 0.07202844
-0.3566934 0.06517676 0.15884663 -0.06622523 0.17350544 0.026581548 0.40086862 -0.25166106
-0.13587286 -0.044401553 -0.06898361 -0.14706732 0.21403576 -0.034209058 0.37061173 -0.042205278
-0.13770117 0.07029287 -0.0143226115 -0.28341287 -0.2886281 -0.13073862 0.04487362 -0.32422045
-0.060403448 -0.066138275 -0.04459469 -0.22095308 -0.36138558 -0.10066368 -0.00037831572 0.088940136
0.13690974 0.017719164 -0.035187993 0.023815647 -0.054403163 0.071997575 -0.13792758 0.2668388
-0.12067943 0.039460983 0.09901458 0.08799081 -0.2616983 0.19241226 -0.06618262 0.097317606
0.079817146 0.067548655 0.14558363 0.18273522 0.18885362 -0.0020303258 -0.02910887 0.31288967
0.003251621 0.120025404 0.12738787 0.14981645 0.3651952 0.15030718 -0.16798323 -0.02223508
-0.5764703 -0.23271012 0.20995285 0.2647539 -0.30292526 0.10660851 -0.30140615 0.4079273
0.15309367 0.15946525 0.7101304 0.24696678 -0.029848302 -0.8081546 -0.71240705 0.4195888
0.16582796 -0.29069772 -0.30577406 -0.098680966 -0.13427949 0.2848961 0.52865636 0.12247176
-0.02211576 0.1493015 0.29691267 0.52321756 0.59060735 -0.11703404 0.40916148 -0.088701524
-0.1377066 0.2059394 0.40983346 0.06870997 0.31464696 -0.24954715 -0.0039156927 -0.07860666
0.21972789 -0.29965657 0.086128056 -0.25561267 0.12717777 0.11798624 0.6126206 0.09906074
-0.19081762 0.12559545 -0.26247984 -0.59610826 -0.3535865 -0.04435376 -0.24260895 -0.17125534
0.3602577 -0.18457976 0.16153663 0.040872484 -0.27695894 -0.45134088 0.42720297 0.18461132
-0.7953534 0.17593507 0.15904094 -0.103784844 0.34962085 0.17101367 0.9028118 -0.30151933
-0.598592 0.23432665 0.018928863 -0.18512341 0.095515795 0.08829048 0.1699846 -0.011655476
-0.22923091 0.42913374 0.51399916 -0.23123457 -0.34662557 -0.44101608 0.3709163 -0.1204315
-0.4112711 0.32882172 -0.06410363 -0.29610702 -0.47026703 0.42440546 -0.51633495 0.021867763
-0.3603531 0.06527424 0.13000178 0.05696051 0.1125842 -0.044123407 0.098770075 -0.23579946
0.119518645 -0.0048012175 0.06987605 -0.10006516 0.2753018 -0.20940349 -0.10949082 0.029635673
-0.1396045 -0.0048456276 -0.16227688 -0.33871162 -0.29126075 -0.017703045 0.17495163 -0.18351085
-0.011729124 -0.1464815 -0.092548564 0.0031373831 -0.3532856 -0.20648026 0.20486242 0.048449147
00000000: f2a6 2f3d dd45 eebb f317 9c3d 2c31 f4bc
00000010: e112 a3bc da40 1b3e 926e 073d 0620 c73e
00000020: 5511 81be 9249 14bd 97d5 a33e 50df 813d
00000030: b7dc e9be f032 9f3e 6bb1 a63e befe 3f3e
00000040: d391 523d b2cd 463e 9164 ae3e 9b2d 293d
00000050: 9bfc f33d 5a4f 533c 7f3e 1fbe 4906 1b3e
00000060: 2773 bb3d df9e da3d 857f b33e dbb8 643e
00000070: f44d db3e 27d1 f33d 7708 99be a83e e4bc
00000080: 250e 43be 4b1a 6b3d 9e10 8b3d 9211 45bc
00000090: f779 b93d 6ba4 d3bd 78c9 3dbd e081 84be
000000a0: c191 8d3e 4a30 77bd ac84 a9bc 5bfe 85bd
000000b0: 25c8 7c3e 9252 3cbe 0f15 bbbc f48a 96bc
000000c0: 8a07 d3bd eedc 85bd 907a 58be bf9a 8fbe
000000d0: e1f6 1dbe 2c8e 1d3d c7ac 6a3d adce 49be
000000e0: 908d dc3d d78f 4fbe 935a f1bd 1442 99bc
000000f0: 30d7 c6be 9488 8fbe d02e 913e a683 933d
00000100: 84a0 b6be 657b 853d b1a8 223e 18a1 87bd
00000110: 69ab 313e 8cc1 d93c a73e cd3e b8d9 80be
00000120: 4122 0bbe 67de 35bd 4747 8dbd d198 16be
00000130: 312c 5b3e cc1e 0cbd d2c0 bd3e 71df 2cbd
00000140: 8901 0dbe b5f5 8f3d 63a9 6abc 7e1b 91be
00000150: 10c7 93be 58e0 05be 67cd 373d 3900 a6be
00000160: 9b69 77bd 8173 87bd eca8 36bd 8641 62be
00000170: 8807 b9be c228 cebd ad58 c6b9 3f26 b63d
00000180: 1132 0c3e c827 913c 4921 10bd 0819 c33c
00000190: dad5 5ebd 7773 933d e33c 0dbe 189f 883e
000001a0: c726 f7bd d7a1 213d 28c8 ca3d 8734 b43d
000001b0: 52fd 85be b807 453e c18a 87bd 744e c73d
000001c0: 2c77 a33d f356 8a3d e013 153e f11e 3b3e
000001d0: d862 413e 370f 05bb ba75 eebc 1333 a03e
000001e0: 2619 553b e1cf f53d f771 023e 7c69 193e
000001f0: defa ba3e 20ea 193e cc03 2cbe 5826 b6bc
00000200: 8f93 13bf 904b 6ebe e1fd 563e d38d 873e
00000210: 0519 9bbe 9055 da3d e851 9abe d9db d03e
00000220: 96c4 1c3e dc4a 233e 1bcb 353f dce4 7c3e
00000230: 6d84 f4bc 38e3 4ebf 4f60 36bf 58d4 d63e
00000240: cece 293e 55d6 94be 6b8e 9cbe 3f19 cabd
00000250: 9080 09be e7dd 913e 0656 073f 79d2 fa3d
00000260: 1c2c b5bc 7ee2 183e f004 983e 96f1 053f
00000270: 0b32 173f 8baf efbd 9d7d d13e 25a9 b5bd
00000280: f502 0dbe c7e1 523e b1d5 d13e d0b7 8c3d
00000290: 6819 a13e 4a89 7fbe 364f 80bb 87fc a0bd
000002a0: 5900 613e 966c 99be e863 b03d aadf 82be
000002b0: e43a 023e c5a2 f13d b4d4 1c3f 5be0 ca3d
000002c0: b265 43be 189c 003e c263 86be 8d9a 18bf
000002d0: 4a09 b5be 4aac 35bd 7b6e 78be 8f5d 2fbe
000002e0: b273 b83e 7a02 3dbe dc69 253e e869 273d
000002f0: 90cd 8dbe 2716 e7be 59ba da3e c00a 3d3e
00000300: 489c 4bbf 5328 343e a1db 223e 268d d4bd
00000310: 8101 b33e 351e 2f3e ad1e 673f be60 9abe
00000320: 533d 19bf 53f3 6f3e b410 9b3c fe90 3dbe
00000330: c99d c33d a4d1 b43d 7110 2e3e 9cf6 3ebc
00000340: 82bb 6abe 6bb7 db3e 7395 033f c1c8 6cbe
00000350: e878 b1be dccc e1be bee8 bd3e caa4 f6bd
00000360: 2092 d2be 525b a83e c448 83bd 579b 97be
00000370: d7c6 f0be ac4b d93e 872e 04bf 0624 b33c
00000380: 3480 b8be 80ae 853d 301f 053e 6c4f 693d
00000390: 8c92 e63d bfba 34bd f747 ca3d 6a75 71be
000003a0: 31c6 f43d 8853 9dbb 2d1b 8f3d f6ee ccbd
000003b0: 5cf4 8c3e de6d 56be b93c e0bd 83c6 f23c
000003c0: 7bf4 0ebe 12c8 9ebb e92b 26be 9c6b adbe
000003d0: 2120 95be fa05 91bc 8526 333e 45ea 3bbe
000003e0: 832b 40bc 3fff 15be 1a8a bdbd 8e9c 4d3b
000003f0: dae1 b4be 906f 53be 74c7 513e 9d72 463d

context_transformer_0/kq_shared_bottleneck/norm/mul;context_transformer_0/kq_shared_bottleneck/norm/add;context_transformer_0/attention/query/einsum/Einsum;context_transformer_0/attention/query/add;context_transformer_0/attention/value/einsum/Einsum;context_transformer_0/attention/query/add/ReadVariableOp/resource;context_transformer_0/attention/Mul;context_transformer_0/attention/Mul/y f4 [32]
0.08680531 -0.16422503 -0.1815128 0.13223663 0.17459384 -0.32888305 -0.09540327 -0.155554
0.14802955 -0.056191076 -0.012498465 0.18835488 -0.055931732 -0.10625495 0.1612175 -0.12959987
0.18232968 0.23180862 0.21422549 0.08312495 -0.03760376 -0.075297 0.11382331 0.1918069
-0.2954551 -0.061577313 0.21054839 -0.17018819 -0.33745143 0.18315855 0.10480201 -0.08642467
00000000: fbc6 b13d 9b2a 28be 7ede 39be 0a69 073e
00000010: bac8 323e 5c63 a8be ca62 c3bd 8c49 1fbe
00000020: 0f95 173e 9d28 66bd 5dc6 4cbc 1ae0 403e
00000030: ac18 65bd 329c d9bd 3316 253e d4b5 04be
00000040: a2b4 3a3e 3d5f 6d3e ed5d 5b3e 6a3d aa3d
00000050: 6606 1abd 5035 9abd 321c e93d 0769 443e
00000060: e445 97be 7e38 7cbd ff99 573e d045 2ebe
00000070: 6fc6 acbe ea8d 3b3e 70a2 d63d 6bff b0bd

context_transformer_0/kq_shared_bottleneck/norm/mul;context_transformer_0/kq_shared_bottleneck/norm/add;context_transformer_0/attention/query/einsum/Einsum;context_transformer_0/attention/query/add;context_transformer_0/attention/value/einsum/Einsum;context_transformer_0/attention/query/add/ReadVariableOp/resource;context_transformer_0/attention/Mul;context_transformer_0/attention/Mul/y1 f4 [32, 32]
-0.109132096 -0.00088814 -0.009192634 -0.005046251 0.04706675 0.08640204 -0.23050883 -0.020290561
0.03888005 -0.023843823 0.16999066 -0.0028629005 -0.20399143 0.13418114 0.21487762 -0.017581357
-0.026738921 0.10400132 0.20674782 -0.016187089 0.054250102 -0.026756544 -0.13870166 -0.041303184
0.0564828 -0.09562235 0.10283939 0.09254895 0.097023726 -0.045094486 -0.1621619 -0.014211602
0.028265303 -0.020909784 0.05549156 0.10094743 -0.0062595205 -0.11830888 0.19499053 0.079898655
-0.093451604 0.03162109 -0.10652083 0.0076156706 0.16273431 -0.028920688 -0.016195664 0.025450781
-0.004547219 -0.04563023 -0.11484496 -0.028292762 -0.07643097 0.0093984045 0.014706741 0.07904757
-0.05219578 0.095611475 -0.009164675 -0.025307922 -0.01597803 0.06452167 0.09203768 -0.0115854535
0.0022975483 0.0038175734 0.14961262 -0.09074361 -0.0036416552 -0.017348357 0.06968007 0.05153777
-0.017024642 0.060152046 0.006973127 0.0059086443 0.0454659 0.0548108 -0.013148831 0.07155915
0.0008302244 0.05511661 -0.031077074 -0.12845403 -0.024986137 -0.011293531 -0.010188916 0.10210422
-0.037625156 0.09812954 0.004411379 0.004419959 -0.18982483 0.07404319 0.06476383 -0.013807012
-0.054134965 0.010361801 -0.077129 0.025456192 0.0080107665 0.07898094 -0.1308278 -0.050658867
0.009185579 -0.029065609 0.08524045 -0.0020144936 -0.11385532 0.022797951 0.04322445 -0.0482251
0.002586082 0.0131627 0.09113926 0.043831244 0.041422892 -0.00028239243 -0.029066183 -0.05527118
0.031006213 -0.099726096 0.027348228 0.02758262 0.10131241 -0.059295338 -0.10135748 -0.00800846
-0.09236696 0.073241636 -0.09192233 0.23905824 0.09928952 -0.15786542 0.062566094 0.07597707
-0.06512172 -0.093138926 0.09345847 -0.07106892 -0.106790215 -0.10249797 -0.09410066 -0.019253584
-0.06602945 0.12621081 -0.07053062 0.116227865 -0.10280621 -0.09334004 0.12941614 0.14548756
0.045895837 0.088529244 0.10618687 0.08944548 0.33073878 -0.10659429 0.008927577 0.07553583
0.022506211 -0.08665239 0.1386556 0.16152954 -0.060397916 -0.102557406 0.119400404 0.24329641
-0.13125831 0.083221614 0.00012158552 0.06089401 0.08499436 0.032918513 0.15641703 0.07745584
0.05009246 -0.08498143 -0.033858504 -0.08027286 -0.05100168 0.074271865 -0.13785635 0.09512018
-0.08588508 0.091838345 0.16510785 0.11750634 0.116732396 0.08438558 0.054599162 -0.06428096
-0.17195183 0.05701738 0.14294337 -0.2531758 0.0019699726 0.09940234 0.12854403 -0.057279583
-0.058797576 0.058927484 0.18933567 0.0030095503 -0.029813569 0.05961982 -0.07842991 0.076950885
-0.001074166 0.18469529 0.08433183 -0.17380065 -0.01366354 -0.048960924 0.10430551 0.08582517
-0.016058018 0.113858126 0.0021676277 0.020930843 -0.4026525 0.09931841 -0.05233213 -0.015245395
-0.02081133 0.007171148 0.06038165 0.06442456 0.0037493748 -0.10471421 0.2463225 0.061381344
-0.114096746 0.05298998 -0.008664846 0.0070427586 0.11008664 -0.05221518 -0.07350356 0.041149244
-0.00034971465 0.029864505 -0.112095915 -0.036578607 -0.079730615 -0.010528388 0.06902185 0.13024332
-0.06032839 0.14595592 0.018445933 0.01946419 -0.04251755 0.078943655 0.07350794 -0.008406045
00000000: a680 dfbd 11d2 68ba b49c 16bc 065b a5bb
00000010: 10c9 403d 8ef3 b03d 820a 6cbe 6438 a6bc
00000020: b040 1f3d 1f54 c3bc 0812 2e3e 809f 3bbb
00000030: 21e3 50be c866 093e e108 5c3e c706 90bc
00000040: 950b dbbc a5fe d43d b3b5 533e c99a 84bc
00000050: 5b35 5e3d 8a30 dbbc cf07 0ebe 872d 29bd
00000060: 825a 673d a7d5 c3bd 759d d23d 4e8a bd3d
00000070: 60b4 c63d ffb4 38bd c50d 26be c7d7 68bc
00000080: a38c e73c ff4a abbc 1e4b 633d 87bd ce3d
00000090: aa1c cdbb ed4b f2bd 99ab 473e e8a1 a33d
000000a0: 8e63 bfbd 1e85 013d 9827 dabd e08c f93b
000000b0: d3a3 263e 14eb ecbc c5ac 84bc 287e d03c
000000c0: d600 95bb c4e6 3abd d633 ebbd 39c6 e7bc
000000d0: d787 9cbd c4fb 193c 8bf4 703c b1e3 a13d
000000e0: 3ecb 55bd f3cf c33d 6f27 16bc 8f52 cfbc
000000f0: 5ce4 82bc f023 843d 407e bc3d ead0 3dbc
00000100: 7792 163b 4130 7a3b 0d34 193e c9d7 b9bd
00000110: d6a8 6ebb 241e 8ebc 6db4 8e3d 4519 533d
00000120: 4377 8bbc fe61 763d d47e e43b 4d9d c13b
00000130: 743a 3a3d 4a81 603d 326e 57bc 9b8d 923d
00000140: 6ba3 593a f4c1 613d 5995 febc 7489 03be
00000150: baaf ccbc 8108 39bc 69ef 26bc 041c d13d
00000160: d61c 1abd 24f8 c83d 548d 903b 4ed5 903b
00000170: 7161 42be f5a3 973d e6a2 843d ce36 62bc
00000180: a0bc 5dbd 8bc4 293c cff5 9dbd 8189 d03c
00000190: 973f 033c c2c0 a13d b9f7 05be ac7f 4fbd
000001a0: 1c7f 163c 001b eebc 8c92 ae3d 9805 04bb
000001b0: fa2c e9bd c5c2 ba3c 1f0c 313d af87 45bd
000001c0: 427b 293b 5ea8 573c 38a7 ba3d 6488 333d
000001d0: 0dab 293d 120e 94b9 341c eebc 0864 62bd
000001e0: be00 fe3c 323d ccbd 6409 e03c f2f4 e13c
000001f0: e17c cf3d abdf 72bd 8394 cfbd ea35 03bc
00000200: e42a bdbd b6ff 953d c641 bcbd afcb 743e
00000210: 4e58 cb3d 79a7 21be a722 803d de99 9b3d
00000220: 895e 85bd 9fbf bebd 2867 bf3d 958c 91bd
00000230: d4b4 dabd 75ea d1bd d9b7 c0bd b1b9 9dbc
00000240: 733a 87bd 683d 013e 5c72 90bd e008 ee3d
00000250: 108c d2bd 1029 bfbd aa85 043e b1fa 143e
00000260: 46fd 3b3d d24e b53d 8078 d93d 312f b73d
00000270: 9856 a93e 1b4e dabd f944 123c 87b2 9a3d
00000280: f25e b83c cf76 b1bd bcfb 0d3e 0068 253e
00000290: ce63 77bd 9e09 d2bd 3388 f43d b222 793e
000002a0: 9468 06be 1870 aa3d bbfb fe38 ff6b 793d
000002b0: 8611 ae3d 90d5 063d c92b 203e 2ba1 9e3d
000002c0: c02d 4d3d be0a aebd 37af 0abd 1966 a4bd
000002d0: 23e7 50bd d91b 983d 372a 0dbe 5ece c23d
000002e0: 84e4 afbd be15 bc3d 0812 293e 2aa7 f03d
000002f0: 6511 ef3d 59d2 ac3d 5fa3 5f3d bca5 83bd
00000300: 2414 30be 0e8b 693d bf5f 123e 42a0 81be
00000310: a81a 013b 7493 cb3d 0ca1 033e ff9d 6abd
00000320: bad5 70bd f25d 713d 36e1 413e e03b 453b
00000330: 963b f4bc ea33 743d dc9f a0bd 6d98 9d3d
00000340: 08cb 8cba c320 3d3e 2bb6 ac3d ccf8 31be
00000350: 0add 5fbc 408b 48bd 219e d53d 1bc5 af3d
00000360: 1b8c 83bc 732e e93d c20e 0e3b 2977 ab3c
00000370: 7828 cebe 7367 cb3d 375a 56bd d2c7 79bc
00000380: 867c aabc f3fb ea3b c052 773d 06f1 833d
00000390: 12b8 753b 6774 d6bd f73b 7c3e 016b 7b3d
000003a0: 8eab e9bd 050c 593d 00f7 0dbc f1c6 e63b
000003b0: 1b75 e13d 96df 55bd 0989 96bd 1c8c 283d
000003c0: e859 b7b9 68a6 f43c 8b92 e5bd 73d3 15bd
000003d0: ce49 a3bd 437f 2cbc 545b 8d3d 815e 053e
000003e0: e71a 77bd 7875 153e ed1b 973c 5d73 9f3c
000003f0: e226 2ebd 36ad a13d 558b 963d 82b9 09bc

context_transformer_0/ffn_layer_0/intermediate_dense/einsum/Einsum;context_transformer_0/ffn_layer_0/intermediate_dense/Relu;context_transformer_0/ffn_layer_0/intermediate_dense/add f4 [32]
-0.17338154 -0.09109207 -0.22724512 -0.2545246 -0.406603 -0.11659796 -0.1910465 -0.19629754
-0.22324409 -0.4509034 -0.16526036 -0.44689453 -0.068648405 -0.15042898 -0.057969797 -0.39967206
-0.1420325 -0.2818697 -0.1858652 -0.20242149 -0.31514814 -0.15825252 -0.35654113 -0.13210964
0.0148201315 -0.22016814 -0.30557156 -0.052830465 -0.1614675 -0.10554526 -0.39416552 0.045056857
00000000: ee8a 31be 7b8e babd f2b2 68be 0c51 82be
00000010: 452e d0be e9ca eebd b2a1 43be 3902 49be
00000020: 199a 64be cfdc e6be 033a 29be 5ccf e4be
00000030: 8997 8cbd 0e0a 1abe bd71 6dbd d1a1 ccbe
00000040: f870 11be 3a51 90be 7253 3ebe 9447 4fbe
00000050: 195b a1be f30c 22be 8f8c b6be c047 07be
00000060: 23d0 723c c273 61be e073 9cbe c264 58bd
00000070: bc57 25be 1d28 d8bd 10d0 c9be 8a8d 383d

context_transformer_0/attention/norm/mul;context_transformer_0/attention/norm/add;context_transformer_0/ffn_layer_0/intermediate_dense/einsum/Einsum;context_transformer_0/ffn_layer_0/intermediate_dense/Relu;context_transformer_0/ffn_layer_0/intermediate_dense/add f4 [32, 32]
-0.375045 0.33149612 0.17829111 -0.0383357 -0.011500247 -0.026089627 -0.23101257 -0.15615308
-0.11472675 0.4158184 -0.22973177 -0.23572607 0.1152262 0.045672998 0.010574244 -0.27130565
0.12862478 0.37988335 -0.14164852 0.05057091 0.051230233 0.22482763 0.07813334 0.12572847
-0.035749625 0.30267623 0.09702438 -0.06988437 0.0057788724 0.03463034 -0.04326627 0.02707924
0.025508322 0.41991067 0.11536195 0.32383484 -0.25430194 0.07001755 0.6198086 -0.18568699
0.07778017 0.020727722 -0.009460877 -0.25285873 0.47628945 -0.10067734 0.034491345 -0.34541252
0.001611206 -0.16524993 0.022239879 0.21519111 0.07493034 0.20954058 -0.20998445 0.14741209
0.1738382 0.028183723 -0.10356517 0.10968097 -0.057094198 -0.26136085 -0.17122266 0.069205195
0.37617183 0.31256884 -0.3389077 0.35396335 -0.4229841 0.0752572 0.17581452 -0.44472298
-0.029360535 -0.15872315 -0.29202852 -0.091695406 0.28709498 -0.39857036 0.19946219 -0.21937759
-0.22189158 -0.18118805 -0.024670254 -0.11053095 -0.050242703 0.2888828 -0.20825695 -0.16529216
-0.04814228 0.022147119 -0.41674477 0.011792163 0.07452967 -0.3472817 0.0802936 -0.24391972
0.15265183 -0.20891064 -0.30558947 0.0066193645 0.08556985 -0.29321995 0.3903006 -0.3530607
0.12909102 0.07392384 -0.109338716 -0.14001465 0.1413647 -0.5347568 -0.11587797 -0.22353634
-0.116440184 0.42095444 -0.026796808 -0.029076017 0.05827072 0.022501582 -0.08754619 0.22533727
-0.16516922 0.12689847 0.07616126 0.19483568 -0.13566573 -0.06173061 0.20190307 -0.1261976
0.25996166 -0.026349984 -0.047057364 -0.05995158 -0.25114384 0.09240809 0.021607406 -0.18518572
-0.19181372 -0.19452138 0.07279586 -0.036358576 0.04505571 0.2024163 -0.18079354 0.04989136
0.035663508 0.083630234 0.119710855 0.035348102 -0.024764834 0.096896365 -0.05726104 -0.118004516
-0.14721547 0.019505266 -0.047586057 0.19011767 -0.046739448 -0.23332036 0.0073590935 0.00067206507
0.097341165 -0.032692272 -0.45695707 0.39258438 -0.0867703 -0.24486722 0.042749286 -0.7030185
-0.027247898 -0.1738936 0.00025837013 -0.10356425 0.06871172 -0.06764096 0.015305785 -0.09229484
-0.026856614 0.16415636 -0.07377679 -0.12430163 0.012502268 0.050671924 -0.21118475 -0.1600135
-0.19673885 -0.01808478 0.109785065 0.04698852 0.040965676 -0.10570358 0.15231302 -0.026550848
0.07824545 -0.36860943 0.088591374 0.07347726 0.15075162 -0.19328727 0.23238716 0.06441898
-0.14554095 -0.051631108 -0.19929138 0.32166338 0.2734127 0.08803715 0.217354 -0.35127136
-0.1516841 -0.049024824 -0.21443568 0.10425597 -0.028509673 0.16764222 0.27826777 -0.015361947
-0.38104942 0.04365163 -0.1972426 0.015543824 0.08302853 0.11455349 0.01214671 -0.1373813
0.2885498 -0.40529522 0.10218532 0.076039016 -0.5015991 -0.41250393 0.05690141 -0.21419239
0.20765826 0.08105911 0.10996314 0.18674016 0.3156011 -0.09515339 0.1524004 0.2610666
-0.234286 0.06900867 -0.04957704 0.063354105 -0.36684877 -0.1881709 -0.003974218 -0.18433017
-0.10530521 -0.27148724 0.21159337 0.03698356 0.26802123 0.19954748 0.09024925 -0.22907445
00000000: e605 c0be dcb9 a93e f291 363e e505 1dbd
00000010: 886b 3cbc eab9 d5bc 8f8e 6cbe 98e6 1fbe
00000020: dcf5 eabd 26e6 d43e ce3e 6bbe 2d62 71be
00000030: b7fb eb3d 9c13 3b3d 983f 2d3c 93e8 8abe
00000040: 37b6 033e 1280 c23e 4f0c 11be 7123 4f3d
00000050: cbd6 513d 3739 663e 5f04 a03d f7be 003e
00000060: 336e 12bd 61f8 9a3e b8b4 c63d 891f 8fbd
00000070: b25c bd3b 8bd8 0d3d f937 31bd 48d5 dd3c
00000080: d4f6 d03c 88fe d63e e342 ec3d aecd a53e
00000090: dd33 82be 5c65 8f3d c7ab 1e3f bb24 3ebe
000000a0: 364b 9f3d 2fcd a93c cb01 1bbc b376 81be
000000b0: 36dc f33e ec2f cebd cc46 0d3d e9d9 b0be
000000c0: 1a2f d33a 4737 29be 6830 b63c 0f5b 5c3e
000000d0: 1475 993d ce91 563e 2a06 57be 32f3 163e
000000e0: a402 323e 8de1 e63c fa19 d4bd 6ba0 e03d
000000f0: 9bdb 69bd 17d1 85be fe54 2fbe 74bb 8d3d
00000100: 9899 c03e 0609 a03e 4f85 adbe af3a b53e
00000110: 5f91 d8be 7220 9a3d b908 343e bbb2 e3be
00000120: 8185 f0bc 5288 22be c384 95be cdca bbbd
00000130: 1dfe 923e 6a11 ccbe d13f 4c3e 85a4 60be
00000140: 8c37 63be 5c89 39be 4619 cabc 0d5e e2bd
00000150: 4bcb 4dbd 72e8 933e 4f41 55be 5942 29be
00000160: d730 45bd e06d b53c 925f d5be eb33 413c
00000170: 03a3 983d e8ce b1be f970 a43d 17c6 79be
00000180: c350 1c3e acec 55be 3976 9cbe 41e7 d83b
00000190: 3f3f af3d ed20 96be 7bd5 c73e 5fc4 b4be
000001a0: 7030 043e 6265 973d faec dfbd 0060 0fbe
000001b0: e8c1 103e d2e5 08bf 6e51 edbd b6e6 64be
000001c0: 3178 eebd 5787 d73e fb84 dbbc d430 eebc
000001d0: 47ad 6e3d 3d55 b83c 6b4b b3bd d0be 663e
000001e0: 1f22 29be acf1 013e 6ffa 9b3d 0183 473e
000001f0: f5eb 0abe 3cd9 7cbd aebf 4e3e f239 01be
00000200: b219 853e ecdb d7bc 39bf 40bd ca8f 75bd
00000210: ed95 80be 7440 bd3d 0402 b13c 53a1 3dbe
00000220: d16a 44be 9d30 47be ff15 953d bbec 14bd
00000230: 568c 383d 3846 4f3e f121 39be e25a 4c3d
00000240: e613 123d 5446 ab3d f72a f53d 2cc9 103d
00000250: 9fdf cabc 9a71 c63d 8d8a 6abd 5aac f1bd
00000260: a7bf 16be 82c9 9f3c 99e9 42bd 35ae 423e
00000270: dd71 3fbd 88eb 6ebe 8d24 f13b 862d 303a
00000280: ce5a c73d 55e8 05bd 47f6 e9be d200 c93e
00000290: a1b4 b1bd 79be 7abe e019 2f3d 05f9 33bf
000002a0: fc36 dfbc 2a11 32be da75 8739 7e19 d4bd
000002b0: bbb8 8c3d 5887 8abd 1ec5 7a3c 1405 bdbd
000002c0: 6702 dcbc 9b18 283e 4918 97bd da91 febd
000002d0: 50d6 4c3c 5d8d 4f3d d140 58be 94da 23be
000002e0: e975 49be 8826 94bc fed6 e03d 0977 403d
000002f0: a0cb 273d 1e7b d8bd f2f7 1b3e 2a81 d9bc
00000300: 273f a03d 60ba bcbe 656f b53d 3f7b 963d
00000310: a25e 1a3e 19ed 45be e6f6 6d3e 19ee 833d
00000320: b008 15be 247b 53bd 0a13 4cbe 10b1 a43e
00000330: c0fc 8b3e d24c b43d 0c92 5e3e d7d9 b3be
00000340: 1453 1bbe 41ce 48bd 0795 5bbe 2784 d53d
00000350: 1e8d e9bc 67aa 2b3e 1d79 8e3e adb0 7bbc
00000360: e918 c3be 0dcc 323d f7f9 49be 86ab 7e3c
00000370: dd0a aa3d 059b ea3d ff02 473c afad 0cbe
00000380: cdbc 933e db82 cfbe 8946 d13d 58ba 9b3d
00000390: cc68 00bf b733 d3be 7411 693d 4055 5bbe
000003a0: 5ea4 543e 5202 a63d 5b34 e13d d038 3f3e
000003b0: 7896 a13e c8df c2bd da0e 1c3e 85aa 853e
000003c0: abe8 6fbe 6b54 8d3d 4b11 4bbd ccbf 813d
000003d0: 9ad3 bbbe dfaf 40be 283a 82bb 0cc1 3cbe
000003e0: 42aa d7bd 6000 8bbe efab 583e 137c 173d
000003f0: 143a 893e 2d56 4c3e 99d4 b83d 7e92 6abe

context_transformer_0/ffn_layer_1/intermediate_dense/einsum/Einsum;context_transformer_0/ffn_layer_1/intermediate_dense/Relu;context_transformer_0/ffn_layer_1/intermediate_dense/add f4 [32]
-0.13706733 -0.21340571 -0.45400417 -0.3328879 -0.26249966 -0.41193223 0.053384222 -0.2930469
-0.1126712 0.0831615 -0.2557194 -0.24785694 -0.32113343 -0.36409155 -0.09374312 -0.07054438
-0.07344614 -0.35214567 -0.05770645 -0.14338376 -0.20931374 -0.027751632 -0.09324721 -0.4170546
-0.22308181 -0.05865043 -0.31088573 -0.26731902 0.010533459 -0.21753763 -0.18368696 -0.31149966
00000000: 615b 0cbe 0787 5abe 3c73 e8be 4870 aabe
00000010: 5b66 86be c8e8 d2be 6aa9 5a3d 3e0a 96be
00000020: 28c0 e6bd 9450 aa3d a7ed 82be 36ce 7dbe
00000030: 9a6b a4be 356a babe 65fc bfbd 9279 90bd
00000040: ee6a 96bd 704c b4be 995d 6cbd 31d3 12be
00000050: 5756 56be 6457 e3bc 65f8 bebd 2e88 d5be
00000060: 8f6f 64be 6f3b 70bd 6a2c 9fbe 0ade 88be
00000070: 8794 2c3c 2fc2 5ebe 6f18 3cbe e27c 9fbe

context_transformer_0/ffn_layer_0/norm/mul;context_transformer_0/ffn_layer_0/norm/add;context_transformer_0/ffn_layer_1/intermediate_dense/einsum/Einsum;context_transformer_0/ffn_layer_1/intermediate_dense/Relu;context_transformer_0/ffn_layer_1/intermediate_dense/add f4 [32, 32]
0.26058188 0.061566047 0.37461028 -0.33197245 -0.06195668 0.106311776 0.25274387 -0.025661116
0.030783614 -0.11525101 -0.007193964 -0.17960526 0.25903144 0.36237794 -0.15273874 -0.09231035
0.36125177 -0.18175505 0.22764121 0.30090767 -0.1570918 -0.19222774 -0.05259349 0.14574672
0.12996049 -0.1800553 0.26064438 0.15668152 0.0030005055 -0.14116216 0.028883833 -0.30687693
0.2215098 -0.2973919 -0.13555774 0.0067846295 -0.12954436 -0.048724204 0.08079594 -0.14390956
0.022273803 -0.04449318 0.2062379 0.013323842 -0.027239583 0.07485523 -0.28933948 -0.17764209
-0.0743874 0.28837252 0.04810565 -0.1388988 0.027245378 -0.011129574 -0.3261942 0.19253236
0.012181401 -0.30737206 0.0946584 0.33475447 -0.116985604 0.037761785 0.014588478 -0.104448766
0.22308652 0.17752439 -0.22362785 0.28556433 0.20840746 -0.15298927 0.0815524 -0.57805765
0.02688311 0.25671145 -0.11961805 -0.039793998 0.14912851 -0.21314026 0.121107124 -0.34866744
0.013795488 0.3656083 0.18498658 0.12387906 -0.06777852 0.1276748 0.021802109 0.0972022
-0.21255267 0.03277941 -0.15295392 0.019193225 0.025876828 0.040084578 -0.037503086 0.01697933
-0.10487102 0.03824019 -0.17951286 0.082087755 -0.05214648 -0.111813106 -0.05255129 0.3987624
-0.04252689 0.006471867 -0.06989435 -0.23244832 -0.0650018 -0.1464618 0.0047775744 -0.3316814
0.12736326 0.41253623 0.020002862 0.049816493 0.10433649 -0.07975506 0.07339143 0.05865814
-0.03400295 -0.2698905 0.0019868822 0.2287923 -0.06919899 0.013968656 0.17936277 0.13027725
0.21553718 -0.16782497 -0.1994327 -0.17750907 -0.17826284 -0.15778226 0.22534838 0.17657425
0.17750525 -0.09798291 -0.34639028 -0.08113349 -0.06531165 0.304352 0.30320433 0.054420974
0.012232006 0.088693134 0.07301101 0.24002941 0.056977436 -0.19860785 -0.017183507 -0.12955025
0.029685406 -0.14347802 0.089711584 -0.13185386 -0.22348584 0.080089286 0.1060844 -0.18324052
-0.21350344 0.20763968 0.40192983 0.07349949 -0.02106087 -0.2675621 -0.095466 0.09828688
-0.11183986 -0.19976805 -0.016135296 0.1401199 0.015057251 -0.029384641 -0.12192612 -0.17780025
0.0842306 0.020574743 0.08684214 -0.033551935 0.018357448 0.0484319 0.20429471 -0.096209496
-0.09269859 0.09301118 -0.14706758 0.19399081 0.09721159 0.07336198 -0.12137908 0.0796963
-0.25719196 0.28852436 -0.2361691 0.08293964 0.1310609 -0.08657629 0.4286542 -0.19702938
0.12974 -0.25971487 -0.09675371 -0.29051226 0.108602405 0.3050375 -0.22667062 -0.055306893
-0.002758321 0.013547059 -0.0032582537 -0.06311932 -0.032747403 0.09343296 0.16970298 -0.17695542
-0.066550195 0.034198817 -0.09677908 -0.13286127 0.07737888 0.084577 0.055596177 -0.26219478
0.057690684 0.008976502 0.08325141 0.22017777 0.03353947 0.25812718 0.31682953 0.044515338
0.15333244 0.34003288 -0.011804155 -0.2191951 0.16163991 0.12539922 0.14628793 0.017659072
0.20849022 0.16173625 -0.18710817 0.14337718 -0.014474443 -0.12378016 -0.01580832 -0.051504325
0.23194255 -0.25212166 0.013611938 0.34397838 -0.18951875 -0.015411513 -0.059683293 -0.3539851
00000000: fd6a 853e ae2c 7c3d ebcc bf3e 4bf8 a9be
00000010: 4ac6 7dbd fdb9 d93d a567 813e 4337 d2bc
00000020: eb2d fc3c b908 ecbd 58bb ebbb 71ea 37be
00000030: c59f 843e 9a89 b93e 8b67 1cbe 350d bdbd
00000040: fef5 b83e ff1d 3abe c71a 693e 9210 9a3e
00000050: acdc 20be 59d7 44be 456c 57bd a13e 153e
00000060: 5d14 053e 6b60 38be 2e73 853e 1f71 203e
00000070: 21a4 443b d08c 10be ca9d ec3c f91e 9dbe
00000080: 77d3 623e c043 98be a6cf 0abe 9951 de3b
00000090: 47a7 04be 0893 47bd 5778 a53d 075d 13be
000000a0: 8d77 b63c 7b3e 36bd 0730 533e 3e4c 5a3c
000000b0: 8c25 dfbc b34d 993d 4e24 94be cfe7 35be
000000c0: 6c58 98bd 90a5 933e 6e0a 453d 7d3b 0ebe
000000d0: b331 df3c d158 36bc ed02 a7be 3427 453e
000000e0: 8094 473c df5f 9dbe 43dc c13d f064 ab3e
000000f0: 2696 efbd 1aac 1a3d 8304 6f3c 3ce9 d5bd
00000100: cb70 643e f4c8 353e b3fe 64be 7d35 923e
00000110: c468 553e 38a9 1cbe f204 a73d 96fb 13bf
00000120: f839 dc3c af6f 833e 4ffa f4bd 08ff 22bd
00000130: 25b5 183e 7141 5abe 0307 f83d 8a84 b2be
00000140: 7806 623c 0331 bb3e 1f6d 3d3e 4eb4 fd3d
00000150: 77cf 8abd 2fbd 023e 569a b23c f211 c73d
00000160: 68a7 59be b443 063d f49f 1cbe 1c3b 9d3c
00000170: a4fb d33c ba2f 243d d69c 19bd 3c18 8b3c
00000180: 9ec6 d6bd bfa1 1c3d 38d2 37be a01d a83d
00000190: 8c97 55bd 45fe e4bd 0540 57bd 962a cc3e
000001a0: ad30 2ebd f511 d43b c524 8fbd ef06 6ebe
000001b0: aa1f 85bd 15fa 15be 338d 9c3b 25d2 a9be
000001c0: 846b 023e f337 d33e 0bdd a33c 610c 4c3d
000001d0: 5fae d53d 9f56 a3bd 3f4e 963d 8543 703d
000001e0: ad46 0bbd 162f 8abe 5a36 023b 8748 6a3e
000001f0: 33b8 8dbd cadc 643c e0aa 373e 6667 053e
00000200: c7b5 5c3e 4fda 2bbe 1638 4cbe f0c4 35be
00000210: 898a 36be ac91 21be bac1 663e e1cf 343e
00000220: f0c3 353e 44ab c8bd 115a b1be 5129 a6bd
00000230: 1dc2 85bd 06d4 9b3e 993d 9b3e 87e8 5e3d
00000240: c068 483c bfa4 b53d cc86 953d 45ca 753e
00000250: 2c61 693d db5f 4bbe 6dc4 8cbc d2a8 04be
00000260: cf2e f33c e7eb 12be b5ba b73d b304 07be
00000270: 79d9 64be da05 a43d c742 d93d 67a3 3bbe
00000280: a5a0 5abe 7f9f 543e bfc9 cd3e e786 963d
00000290: d887 acbc e6fd 88be ae83 c3bd a24a c93d
000002a0: 4c0c e5bd ff8f 4cbe 2b2e 84bc 977b 0f3e
000002b0: b0b2 763c 0fb8 f0bc 67b4 f9bd 4511 36be
000002c0: 1881 ac3d 5d8c a83c 4bda b13d c16d 09bd
000002d0: 5c62 963c 8760 463d a232 513e 7c09 c5bd
000002e0: c2d8 bdbd a57c be3d e298 16be 87a5 463e
000002f0: df16 c73d ce3e 963d 9895 f8bd d037 a33d
00000300: aaae 83be 77b9 933e 50d6 71be 42dc a93d
00000310: d434 063e e94e b1bd 9078 db3e 12c2 49be
00000320: 90da 043e 59f9 84be cf26 c6bd 06be 94be
00000330: f06a de3d e02d 9c3e 581c 68be 7b89 62bd
00000340: f2c4 34bb 7cf4 5d3c 6d88 55bb b444 81bd
00000350: 2422 06bd c859 bf3d 9ec6 2d3e cd33 35be
00000360: 784b 88bd 0f14 0c3d 1c34 c6bd c90c 08be
00000370: d178 9e3d b536 ad3d d1b8 633d 653e 86be
00000380: 114d 6c3d 2e12 133c b77f aa3d 4876 613e
00000390: af60 093d 3f29 843e 7b37 a23e b755 363d
000003a0: 2e03 1d3e ca18 ae3e 3766 41bc ae74 60be
000003b0: ef84 253e a768 003e 81cc 153e c2a9 903c
000003c0: 767e 553e 309e 253e 4999 3fbe 78d1 123e
000003d0: 3726 6dbc 7480 fdbd 7380 81bc 33f6 52bd
000003e0: 5982 6d3e 1716 81be 9b04 5f3c ef1d b03e
000003f0: 3411 42be 9280 7cbc 7876 74bd 893d b5be

context_transformer_0/ffn_layer_2/intermediate_dense/einsum/Einsum;context_transformer_0/ffn_layer_2/intermediate_dense/Relu;context_transformer_0/ffn_layer_2/intermediate_dense/add f4 [32]
-0.07193351 -0.2766403 -0.37369236 -0.048372976 -0.16836509 0.009854577 -0.13075848 -0.09503166
-0.2357078 -0.2807303 -0.100650966 -0.04903725 -0.1278315 0.017265279 -0.044705153 -0.04062847
-0.21840258 -0.2792553 -0.13407554 -0.11888004 -0.1460726 -0.020180568 -0.02690964 0.06536977
-0.12297597 -0.15580034 -0.01695461 -0.33569044 -0.071673214 -0.073499635 -0.10651721 -0.32696506
00000000: e051 93bd cca3 8dbe 9b54 bfbe be22 46bd
00000010: e667 2cbe 1775 213c 8de5 05be f59f c2bd
00000020: 635d 71be e2bb 8fbe 1822 cebd 49db 48bd
00000030: 43e6 02be ea6f 8d3c c01c 37bd 0a6a 26bd
00000040: eda4 5fbe 8dfa 8ebe 194b 09be 6177 f3bd
00000050: 0e94 15be b851 a5bc 9b71 dcbc 96e0 853d
00000060: d3da fbbd 208a 1fbe 65e4 8abc 9edf abbe
00000070: 68c9 92bd fa86 96bd b225 dabd f767 a7be

context_transformer_0/ffn_layer_1/norm/mul;context_transformer_0/ffn_layer_1/norm/add;context_transformer_0/ffn_layer_2/intermediate_dense/einsum/Einsum;context_transformer_0/ffn_layer_2/intermediate_dense/Relu;context_transformer_0/ffn_layer_2/intermediate_dense/add f4 [32, 32]
0.0141137205 0.026159974 0.022762816 0.00653793 -0.01424269 -0.027202368 0.02331623 0.0011569624
0.0076411986 0.0061622867 -0.035749458 0.013143855 0.016805163 0.009945114 -0.004568114 -0.020437274
0.03375695 -0.0009837179 -0.0065555987 -0.0055089034 0.008558218 -0.034663383 -0.004246914 0.015148636
-0.017921623 0.014811867 -0.010213624 0.017744845 -0.0073079607 0.010298761 -0.028108818 -0.013303007
0.1266938 -0.14168109 -0.07658604 0.39680356 -0.06607022 -0.14985168 0.022003572 -0.12595262
-0.094271466 -0.20795795 -0.01234511 -0.07416548 -0.0642655 0.09319846 -0.064677864 0.008067393
-0.25666913 -0.09430471 -0.061536808 -0.051096607 0.04664722 -0.108340986 0.19746664 -0.023660937
-0.2842267 -0.014452831 -0.14401941 0.14329274 0.017437529 -0.11796082 0.06349744 -0.23982404
-0.048300367 0.05992302 0.010576243 0.24403101 0.009750989 0.14918548 -0.11990756 0.09836651
0.0055883527 -0.2222242 -0.23542581 -0.014126795 0.02784339 0.14905919 -0.31327578 0.026685571
0.07823694 -0.13165182 0.124458686 -0.1708563 0.092701405 -0.15040967 0.054683086 0.050894883
0.29414514 -0.11845263 -0.24745286 -0.009067431 -0.037899937 -0.22343291 -0.2732146 -0.0078534335
0.16065817 0.44503832 0.038773 0.02655584 -0.043802638 0.1411838 -0.029643398 0.04509959
0.22762607 -0.0072932984 -0.015413094 -0.08944743 0.14124551 -0.22195752 0.15611075 -0.08384227
0.22072464 -0.20683439 0.25626495 0.17109475 -0.11989968 0.06491091 0.27872455 -0.02616091
0.21242447 0.21481098 -0.27215636 -0.021168577 -0.20964132 0.40022585 -0.0699271 0.027704896
-0.11286093 0.04873238 0.042373043 -0.22330187 -0.035649147 0.08651208 0.13460952 -0.11655294
-0.34038094 -0.19173154 -0.03174181 -0.068128236 0.045619562 -0.01816726 -0.066809386 -0.10161119
0.046431184 0.038801987 -0.005360034 -0.03315991 0.03860768 0.12434443 0.048218567 -0.15455993
-0.31345198 0.22142044 0.12442605 0.13099658 0.03481257 0.00090008916 0.15952441 -0.1534623
0.019478789 -0.060704056 0.19025026 -0.3209834 0.063551486 -0.019707471 0.08526848 0.04095489
0.1481202 0.28786826 0.07934827 -0.014959522 0.024811441 0.014116882 -0.070796765 -0.07747348
0.11407414 0.19177051 -0.11834419 -0.24532284 -0.26328573 -0.17834032 -0.18113707 0.14346707
0.1922014 -0.1015852 -0.05602776 -0.057073183 -0.24115625 0.16775218 -0.08925563 -0.23258819
-0.049348198 -0.14710797 0.025316548 0.11492534 -0.2179081 -0.14288357 0.0937236 -0.044764344
0.28044322 -0.252415 -0.31346843 -0.1750961 0.24036306 0.063321896 0.122716814 -0.1714968
0.019155484 0.25259772 -0.19189559 0.20143123 0.008126621 -0.19495025 -0.09560407 -0.0033854565
-0.20356561 -0.028609298 0.038023647 0.24584599 0.14287427 0.3421834 0.31704193 -0.16233288
0.11858168 0.101583816 -0.07172848 -0.044033967 -0.31326076 0.028304212 -0.14273421 -0.16181542
-0.016875537 0.2946737 -0.20779204 -0.05068564 0.064273365 0.3330706 0.18983524 -0.02950312
0.019283302 0.13206257 0.023450062 -0.11513968 -0.22795515 -0.03844897 0.40060815 0.21094216
0.13690643 -0.17946365 -0.34826738 -0.089152865 -0.2774595 -0.041159805 -0.17500935 0.11704656
00000000: 3c3d 673c 714d d63c 1679 ba3c 223c d63b
00000010: 2c5a 69bc 80d7 debc ae01 bf3c 37a5 973a
00000020: 0563 fa3b 02ed c93b 066e 12bd 5359 573c
00000030: fbaa 893c d5f0 223c 1eb0 95bb 126c a7bc
00000040: ba44 0a3d 18f0 80ba 59d0 d6bb 0884 b4bb
00000050: c537 0c3c 31fb 0dbd b229 8bbb fc31 783c
00000060: 5ed0 92bc 79ad 723c 0b57 27bc a35d 913c
00000070: 9e77 efbb 22bc 283c 7744 e6bc dbf4 59bc
00000080: 05bc 013e d914 11be 24d9 9cbd d629 cb3e
00000090: d34f 87bd b872 19be d640 b43c b9f9 00be
000000a0: 6611 c1bd eef2 54be 2543 4abc 12e4 97bd
000000b0: a19d 83bd d6de be3d d475 84bd 192d 043c
000000c0: 236a 83be d422 c1bd 050e 7cbd ad4a 51bd
000000d0: 2811 3f3d e1e1 ddbd b234 4a3e 95d4 c1bc
000000e0: 2986 91be 91cb 6cbc d379 13be 55bb 123e
000000f0: 26d9 8e3c 7195 f1bd f20a 823d 6f94 75be
00000100: 9bd6 45bd d771 753d fa47 2d3c 44e3 793e
00000110: 9dc2 1f3c 14c4 183e 1892 f5bd 6174 c93d
00000120: 801e b73b be8e 63be 7713 71be 1374 67bc
00000130: d217 e43c f9a2 183e af65 a0be b39b da3c
00000140: b03a a03d bccf 06be 32e4 fe3d f4f4 2ebe
00000150: 3cda bd3d fe04 1abe 5ffb 5f3d 2777 503d
00000160: 319a 963e 4b97 f2bd 4864 7dbe 908f 14bc
00000170: f73c 1bbd 99cb 64be c9e2 8bbe b0ab 00bc
00000180: 9383 243e 10dc e33e 70d0 1e3d a28b d93c
00000190: 656a 33bd 7c92 103e b6d6 f2bc 59ba 383d
000001a0: cf16 693e 9ffc eebb 3487 7cbc 3730 b7bd
000001b0: aaa2 103e d548 63be 7fdb 1f3e 7fb5 abbd
000001c0: a405 623e 65cc 53be 2935 833e 7633 2f3e
000001d0: f78d f5bd 03f0 843d fcb4 8e3e 684f d6bc
000001e0: cd85 593e 69f7 5b3e 1458 8bbe b969 adbc
000001f0: 37ac 56be 67ea cc3e f035 8fbd 61f5 e23c
00000200: a223 e7bd 9b9b 473d 5b8f 2d3d 3fa9 64be
00000210: d704 12bd 3f2d b13d 14d7 093e 4fb3 eebd
00000220: 6946 aebe 4655 44be b303 02bd d186 8bbd
00000230: 94db 3a3d 81d3 94bc 5cd3 88bd 8719 d0bd
00000240: a02e 3e3d d5ee 1e3d 39a3 afbb b0d2 07bd
00000250: 1623 1e3d 4ba8 fe3d d580 453d f544 1ebe
00000260: c77c a0be 0abc 623e 16d3 fe3d f823 063e
00000270: a097 0e3d f6f3 6b3a 5e5a 233e 3925 1dbe
00000280: fb91 9f3c d1a4 78bd f7d0 423e f057 a4be
00000290: 4827 823d 9071 a1bc 3ea1 ae3d 51c0 273d
000002a0: d2ac 173e 7863 933e 5981 a23d c818 75bc
000002b0: 5d41 cb3c 7f4a 673c e5fd 90bd 6aaa 9ebd
000002c0: b49f e93d 7d5f 443e 705e f2bd e935 7bbe
000002d0: 63cd 86be d89e 36be ff7b 39be 08e9 123e
000002e0: 72d0 443e e70b d0bd 5d7d 65bd 92c5 69bd
000002f0: aaf1 76be 3ac7 2b3e a8cb b6bd 992b 6ebe
00000300: 5621 4abd 79a3 16be a664 cf3c fa5d eb3d
00000310: 4d23 5fbe 1250 12be 29f2 bf3d d15a 37bd
00000320: 4196 8f3e 8a3c 81be ef7e a0be 644c 33be
00000330: bc21 763e e9ae 813d f452 fb3d db9c 2fbe
00000340: f6eb 9c3c 7d54 813e 4780 44be fd43 4e3e
00000350: 8525 053c 0aa1 47be 11cc c3bd 89de 5dbb
00000360: 8173 50be 0c5e eabc afbe 1b3d 0dbf 7b3e
00000370: a24d 123e aa32 af3e 5253 a23e 973a 26be
00000380: f4da f23d 2d0b d03d 62e6 92bd f65c 34bd
00000390: b763 a0be 3cde e73c eb28 12be f1b2 25be
000003a0: 913e 8abc 79df 963e 70c7 54be bf9b 4fbd
000003b0: c1a1 833d 3b88 aa3e 2b64 423e 87b0 f1bc
000003c0: 04f8 9d3c 693b 073e 581a c03c 5ace ebbd
000003d0: 136d 69be ab7c 1dbd 831c cd3e 3901 583e
000003e0: 3331 0c3e 52c5 37be 1a50 b2be c795 b6bd
000003f0: 2c0f 8ebe 2f97 28bd a735 33be 1bb6 ef3d

context_transformer_0/ffn_layer_3/intermediate_dense/einsum/Einsum;context_transformer_0/ffn_layer_3/intermediate_dense/Relu;context_transformer_0/ffn_layer_3/intermediate_dense/add f4 [32]
-0.118324555 -0.146332 -0.13801478 -0.019470109 -0.41739342 -0.09783311 -0.1872206 -0.34598556
-0.31308305 -0.23941043 -0.04602725 -0.03486471 0.062192522 -0.25821137 -0.13656892 -0.104224846
-0.053682793 -0.14502342 -0.1357917 -0.22299431 0.097859785 -0.13040063 0.02389309 0.016087586
-0.16941535 -0.113777675 -0.15189044 -0.15969692 -0.09006788 -0.23925763 -0.04705366 -0.11980421
00000000: 2554 f2bd 0ed8 15be bf53 0dbe c77f 9fbc
00000010: 97b4 d5be ba5c c8bd c2b6 3fbe 0525 b1be
00000020: 6c4c a0be 0228 75be 1287 3cbd 4cce 0ebd
00000030: 96bd 7e3d 4834 84be b9d8 0bbe d673 d5bd
00000040: 7de2 5bbd 0581 14be fb0c 0bbe 9f58 64be
00000050: b66a c83d be87 05be 71bb c33c 1dca 833c
00000060: 387b 2dbe 4504 e9bd 2b89 1bbe 9787 23be
00000070: 8275 b8bd f4ff 74be 57bb 40bd e95b f5bd
